/Users/pierresevestre/miniconda3/envs/DysonLearning/lib/python3.6/site-packages/gym/envs/registration.py:14: PkgResourcesDeprecationWarning: Parameters to load are deprecated.  Call .resolve and .require separately.
  result = entry_point.load(False)
Initial packages spawned, with average access time : None, and average energy cost : None
_________________________________________________________________
Layer (type)                 Output Shape              Param #
=================================================================
flatten_1 (Flatten)          (None, 8)                 0
_________________________________________________________________
dense_1 (Dense)              (None, 256)               2048
_________________________________________________________________
activation_1 (Activation)    (None, 256)               0
_________________________________________________________________
dense_2 (Dense)              (None, 128)               32768
_________________________________________________________________
activation_2 (Activation)    (None, 128)               0
_________________________________________________________________
dense_3 (Dense)              (None, 128)               16384
_________________________________________________________________
activation_3 (Activation)    (None, 128)               0
_________________________________________________________________
dense_4 (Dense)              (None, 6)                 768
_________________________________________________________________
activation_4 (Activation)    (None, 6)                 0
=================================================================
Total params: 51,968
Trainable params: 51,968
Non-trainable params: 0
_________________________________________________________________
None
Testing for 1 episodes ...
Initial packages spawned, with average access time : None, and average energy cost : None
Step return is : `state`, 10.939964654488678, False, Dropping a package from 0 to 34
…
